Model: "sequential_34"
_________________________________________________________________
Layer (type)                 Output Shape              Param #   
=================================================================
conv1d_12 (Conv1D)           (None, 10, 400)           40400     
_________________________________________________________________
dropout_78 (Dropout)         (None, 10, 400)           0         
_________________________________________________________________
max_pooling1d_12 (MaxPooling (None, 9, 400)            0         
_________________________________________________________________
flatten_12 (Flatten)         (None, 3600)              0         
_________________________________________________________________
dense_78 (Dense)             (None, 300)               1080300   
_________________________________________________________________
dense_79 (Dense)             (None, 1)                 301       
=================================================================
Total params: 1,121,001
Trainable params: 1,121,001
Non-trainable params: 0
_________________________________________________________________
